Model: "model"
__________________________________________________________________________________________________
 Layer (type)                   Output Shape         Param #     Connected to                     
==================================================================================================
 input_1 (InputLayer)           [(None, 32, 32, 3)]  0           []                               
                                                                                                  
 conv2d (Conv2D)                (None, 32, 32, 16)   448         ['input_1[0][0]']                
                                                                                                  
 batch_normalization (BatchNorm  (None, 32, 32, 16)  64          ['conv2d[0][0]']                 
 alization)                                                                                       
                                                                                                  
 activation (Activation)        (None, 32, 32, 16)   0           ['batch_normalization[0][0]']    
                                                                                                  
 conv2d_1 (Conv2D)              (None, 32, 32, 16)   2320        ['activation[0][0]']             
                                                                                                  
 batch_normalization_1 (BatchNo  (None, 32, 32, 16)  64          ['conv2d_1[0][0]']               
 rmalization)                                                                                     
                                                                                                  
 activation_1 (Activation)      (None, 32, 32, 16)   0           ['batch_normalization_1[0][0]']  
                                                                                                  
 conv2d_2 (Conv2D)              (None, 32, 32, 16)   2320        ['activation_1[0][0]']           
                                                                                                  
 batch_normalization_2 (BatchNo  (None, 32, 32, 16)  64          ['conv2d_2[0][0]']               
 rmalization)                                                                                     
                                                                                                  
 add (Add)                      (None, 32, 32, 16)   0           ['activation[0][0]',             
                                                                  'batch_normalization_2[0][0]']  
                                                                                                  
 activation_2 (Activation)      (None, 32, 32, 16)   0           ['add[0][0]']                    
                                                                                                  
 conv2d_3 (Conv2D)              (None, 32, 32, 16)   2320        ['activation_2[0][0]']           
                                                                                                  
 batch_normalization_3 (BatchNo  (None, 32, 32, 16)  64          ['conv2d_3[0][0]']               
 rmalization)                                                                                     
                                                                                                  
 activation_3 (Activation)      (None, 32, 32, 16)   0           ['batch_normalization_3[0][0]']  
                                                                                                  
 conv2d_4 (Conv2D)              (None, 32, 32, 16)   2320        ['activation_3[0][0]']           
                                                                                                  
 batch_normalization_4 (BatchNo  (None, 32, 32, 16)  64          ['conv2d_4[0][0]']               
 rmalization)                                                                                     
                                                                                                  
 add_1 (Add)                    (None, 32, 32, 16)   0           ['activation_2[0][0]',           
                                                                  'batch_normalization_4[0][0]']  
                                                                                                  
 activation_4 (Activation)      (None, 32, 32, 16)   0           ['add_1[0][0]']                  
                                                                                                  
 conv2d_5 (Conv2D)              (None, 32, 32, 16)   2320        ['activation_4[0][0]']           
                                                                                                  
 batch_normalization_5 (BatchNo  (None, 32, 32, 16)  64          ['conv2d_5[0][0]']               
 rmalization)                                                                                     
                                                                                                  
 activation_5 (Activation)      (None, 32, 32, 16)   0           ['batch_normalization_5[0][0]']  
                                                                                                  
 conv2d_6 (Conv2D)              (None, 32, 32, 16)   2320        ['activation_5[0][0]']           
                                                                                                  
 batch_normalization_6 (BatchNo  (None, 32, 32, 16)  64          ['conv2d_6[0][0]']               
 rmalization)                                                                                     
                                                                                                  
 add_2 (Add)                    (None, 32, 32, 16)   0           ['activation_4[0][0]',           
                                                                  'batch_normalization_6[0][0]']  
                                                                                                  
 activation_6 (Activation)      (None, 32, 32, 16)   0           ['add_2[0][0]']                  
                                                                                                  
 conv2d_7 (Conv2D)              (None, 16, 16, 32)   4640        ['activation_6[0][0]']           
                                                                                                  
 batch_normalization_7 (BatchNo  (None, 16, 16, 32)  128         ['conv2d_7[0][0]']               
 rmalization)                                                                                     
                                                                                                  
 activation_7 (Activation)      (None, 16, 16, 32)   0           ['batch_normalization_7[0][0]']  
                                                                                                  
 conv2d_8 (Conv2D)              (None, 16, 16, 32)   9248        ['activation_7[0][0]']           
                                                                                                  
 conv2d_9 (Conv2D)              (None, 16, 16, 32)   544         ['activation_6[0][0]']           
                                                                                                  
 batch_normalization_8 (BatchNo  (None, 16, 16, 32)  128         ['conv2d_8[0][0]']               
 rmalization)                                                                                     
                                                                                                  
 add_3 (Add)                    (None, 16, 16, 32)   0           ['conv2d_9[0][0]',               
                                                                  'batch_normalization_8[0][0]']  
                                                                                                  
 activation_8 (Activation)      (None, 16, 16, 32)   0           ['add_3[0][0]']                  
                                                                                                  
 conv2d_10 (Conv2D)             (None, 16, 16, 32)   9248        ['activation_8[0][0]']           
                                                                                                  
 batch_normalization_9 (BatchNo  (None, 16, 16, 32)  128         ['conv2d_10[0][0]']              
 rmalization)                                                                                     
                                                                                                  
 activation_9 (Activation)      (None, 16, 16, 32)   0           ['batch_normalization_9[0][0]']  
                                                                                                  
 conv2d_11 (Conv2D)             (None, 16, 16, 32)   9248        ['activation_9[0][0]']           
                                                                                                  
 batch_normalization_10 (BatchN  (None, 16, 16, 32)  128         ['conv2d_11[0][0]']              
 ormalization)                                                                                    
                                                                                                  
 add_4 (Add)                    (None, 16, 16, 32)   0           ['activation_8[0][0]',           
                                                                  'batch_normalization_10[0][0]'] 
                                                                                                  
 activation_10 (Activation)     (None, 16, 16, 32)   0           ['add_4[0][0]']                  
                                                                                                  
 conv2d_12 (Conv2D)             (None, 16, 16, 32)   9248        ['activation_10[0][0]']          
                                                                                                  
 batch_normalization_11 (BatchN  (None, 16, 16, 32)  128         ['conv2d_12[0][0]']              
 ormalization)                                                                                    
                                                                                                  
 activation_11 (Activation)     (None, 16, 16, 32)   0           ['batch_normalization_11[0][0]'] 
                                                                                                  
 conv2d_13 (Conv2D)             (None, 16, 16, 32)   9248        ['activation_11[0][0]']          
                                                                                                  
 batch_normalization_12 (BatchN  (None, 16, 16, 32)  128         ['conv2d_13[0][0]']              
 ormalization)                                                                                    
                                                                                                  
 add_5 (Add)                    (None, 16, 16, 32)   0           ['activation_10[0][0]',          
                                                                  'batch_normalization_12[0][0]'] 
                                                                                                  
 activation_12 (Activation)     (None, 16, 16, 32)   0           ['add_5[0][0]']                  
                                                                                                  
 conv2d_14 (Conv2D)             (None, 8, 8, 64)     18496       ['activation_12[0][0]']          
                                                                                                  
 batch_normalization_13 (BatchN  (None, 8, 8, 64)    256         ['conv2d_14[0][0]']              
 ormalization)                                                                                    
                                                                                                  
 activation_13 (Activation)     (None, 8, 8, 64)     0           ['batch_normalization_13[0][0]'] 
                                                                                                  
 conv2d_15 (Conv2D)             (None, 8, 8, 64)     36928       ['activation_13[0][0]']          
                                                                                                  
 conv2d_16 (Conv2D)             (None, 8, 8, 64)     2112        ['activation_12[0][0]']          
                                                                                                  
 batch_normalization_14 (BatchN  (None, 8, 8, 64)    256         ['conv2d_15[0][0]']              
 ormalization)                                                                                    
                                                                                                  
 add_6 (Add)                    (None, 8, 8, 64)     0           ['conv2d_16[0][0]',              
                                                                  'batch_normalization_14[0][0]'] 
                                                                                                  
 activation_14 (Activation)     (None, 8, 8, 64)     0           ['add_6[0][0]']                  
                                                                                                  
 conv2d_17 (Conv2D)             (None, 8, 8, 64)     36928       ['activation_14[0][0]']          
                                                                                                  
 batch_normalization_15 (BatchN  (None, 8, 8, 64)    256         ['conv2d_17[0][0]']              
 ormalization)                                                                                    
                                                                                                  
 activation_15 (Activation)     (None, 8, 8, 64)     0           ['batch_normalization_15[0][0]'] 
                                                                                                  
 conv2d_18 (Conv2D)             (None, 8, 8, 64)     36928       ['activation_15[0][0]']          
                                                                                                  
 batch_normalization_16 (BatchN  (None, 8, 8, 64)    256         ['conv2d_18[0][0]']              
 ormalization)                                                                                    
                                                                                                  
 add_7 (Add)                    (None, 8, 8, 64)     0           ['activation_14[0][0]',          
                                                                  'batch_normalization_16[0][0]'] 
                                                                                                  
 activation_16 (Activation)     (None, 8, 8, 64)     0           ['add_7[0][0]']                  
                                                                                                  
 conv2d_19 (Conv2D)             (None, 8, 8, 64)     36928       ['activation_16[0][0]']          
                                                                                                  
 batch_normalization_17 (BatchN  (None, 8, 8, 64)    256         ['conv2d_19[0][0]']              
 ormalization)                                                                                    
                                                                                                  
 activation_17 (Activation)     (None, 8, 8, 64)     0           ['batch_normalization_17[0][0]'] 
                                                                                                  
 conv2d_20 (Conv2D)             (None, 8, 8, 64)     36928       ['activation_17[0][0]']          
                                                                                                  
 batch_normalization_18 (BatchN  (None, 8, 8, 64)    256         ['conv2d_20[0][0]']              
 ormalization)                                                                                    
                                                                                                  
 add_8 (Add)                    (None, 8, 8, 64)     0           ['activation_16[0][0]',          
                                                                  'batch_normalization_18[0][0]'] 
                                                                                                  
 activation_18 (Activation)     (None, 8, 8, 64)     0           ['add_8[0][0]']                  
                                                                                                  
 average_pooling2d (AveragePool  (None, 2, 2, 64)    0           ['activation_18[0][0]']          
 ing2D)                                                                                           
                                                                                                  
 flatten (Flatten)              (None, 256)          0           ['average_pooling2d[0][0]']      
                                                                                                  
 dense (Dense)                  (None, 10)           2570        ['flatten[0][0]']                
                                                                                                  
 activation_19 (Activation)     (None, 10)           0           ['dense[0][0]']                  
                                                                                                  
==================================================================================================
Total params: 276,362
Trainable params: 274,986
Non-trainable params: 1,376
__________________________________________________________________________________________________
…
__________________________________________________________________________________________________
Model: "model_1"
__________________________________________________________________________________________________
 Layer (type)                   Output Shape         Param #     Connected to                     
==================================================================================================
 input_2 (InputLayer)           [(None, 28, 28, 1)]  0           []                               
                                                                                                  
 conv2d_21 (Conv2D)             (None, 28, 28, 16)   160         ['input_2[0][0]']                
                                                                                                  
 batch_normalization_19 (BatchN  (None, 28, 28, 16)  64          ['conv2d_21[0][0]']              
 ormalization)                                                                                    
                                                                                                  
 activation_20 (Activation)     (None, 28, 28, 16)   0           ['batch_normalization_19[0][0]'] 
                                                                                                  
 conv2d_22 (Conv2D)             (None, 28, 28, 16)   2320        ['activation_20[0][0]']          
                                                                                                  
 batch_normalization_20 (BatchN  (None, 28, 28, 16)  64          ['conv2d_22[0][0]']              
 ormalization)                                                                                    
                                                                                                  
 activation_21 (Activation)     (None, 28, 28, 16)   0           ['batch_normalization_20[0][0]'] 
                                                                                                  
 conv2d_23 (Conv2D)             (None, 28, 28, 16)   2320        ['activation_21[0][0]']          
                                                                                                  
 batch_normalization_21 (BatchN  (None, 28, 28, 16)  64          ['conv2d_23[0][0]']              
 ormalization)                                                                                    
                                                                                                  
 add_9 (Add)                    (None, 28, 28, 16)   0           ['activation_20[0][0]',          
                                                                  'batch_normalization_21[0][0]'] 
                                                                                                  
 activation_22 (Activation)     (None, 28, 28, 16)   0           ['add_9[0][0]']                  
                                                                                                  
 conv2d_24 (Conv2D)             (None, 28, 28, 16)   2320        ['activation_22[0][0]']          
                                                                                                  
 batch_normalization_22 (BatchN  (None, 28, 28, 16)  64          ['conv2d_24[0][0]']              
 ormalization)                                                                                    
                                                                                                  
 activation_23 (Activation)     (None, 28, 28, 16)   0           ['batch_normalization_22[0][0]'] 
                                                                                                  
 conv2d_25 (Conv2D)             (None, 28, 28, 16)   2320        ['activation_23[0][0]']          
                                                                                                  
 batch_normalization_23 (BatchN  (None, 28, 28, 16)  64          ['conv2d_25[0][0]']              
 ormalization)                                                                                    
                                                                                                  
 add_10 (Add)                   (None, 28, 28, 16)   0           ['activation_22[0][0]',          
                                                                  'batch_normalization_23[0][0]'] 
                                                                                                  
 activation_24 (Activation)     (None, 28, 28, 16)   0           ['add_10[0][0]']                 
                                                                                                  
 conv2d_26 (Conv2D)             (None, 28, 28, 16)   2320        ['activation_24[0][0]']          
                                                                                                  
 batch_normalization_24 (BatchN  (None, 28, 28, 16)  64          ['conv2d_26[0][0]']              
 ormalization)                                                                                    
                                                                                                  
 activation_25 (Activation)     (None, 28, 28, 16)   0           ['batch_normalization_24[0][0]'] 
                                                                                                  
 conv2d_27 (Conv2D)             (None, 28, 28, 16)   2320        ['activation_25[0][0]']          
                                                                                                  
 batch_normalization_25 (BatchN  (None, 28, 28, 16)  64          ['conv2d_27[0][0]']              
 ormalization)                                                                                    
                                                                                                  
 add_11 (Add)                   (None, 28, 28, 16)   0           ['activation_24[0][0]',          
                                                                  'batch_normalization_25[0][0]'] 
                                                                                                  
 activation_26 (Activation)     (None, 28, 28, 16)   0           ['add_11[0][0]']                 
                                                                                                  
 conv2d_28 (Conv2D)             (None, 14, 14, 32)   4640        ['activation_26[0][0]']          
                                                                                                  
 batch_normalization_26 (BatchN  (None, 14, 14, 32)  128         ['conv2d_28[0][0]']              
 ormalization)                                                                                    
                                                                                                  
 activation_27 (Activation)     (None, 14, 14, 32)   0           ['batch_normalization_26[0][0]'] 
                                                                                                  
 conv2d_29 (Conv2D)             (None, 14, 14, 32)   9248        ['activation_27[0][0]']          
                                                                                                  
 conv2d_30 (Conv2D)             (None, 14, 14, 32)   544         ['activation_26[0][0]']          
                                                                                                  
 batch_normalization_27 (BatchN  (None, 14, 14, 32)  128         ['conv2d_29[0][0]']              
 ormalization)                                                                                    
                                                                                                  
 add_12 (Add)                   (None, 14, 14, 32)   0           ['conv2d_30[0][0]',              
                                                                  'batch_normalization_27[0][0]'] 
                                                                                                  
 activation_28 (Activation)     (None, 14, 14, 32)   0           ['add_12[0][0]']                 
                                                                                                  
 conv2d_31 (Conv2D)             (None, 14, 14, 32)   9248        ['activation_28[0][0]']          
                                                                                                  
 batch_normalization_28 (BatchN  (None, 14, 14, 32)  128         ['conv2d_31[0][0]']              
 ormalization)                                                                                    
                                                                                                  
 activation_29 (Activation)     (None, 14, 14, 32)   0           ['batch_normalization_28[0][0]'] 
                                                                                                  
 conv2d_32 (Conv2D)             (None, 14, 14, 32)   9248        ['activation_29[0][0]']          
                                                                                                  
 batch_normalization_29 (BatchN  (None, 14, 14, 32)  128         ['conv2d_32[0][0]']              
 ormalization)                                                                                    
                                                                                                  
 add_13 (Add)                   (None, 14, 14, 32)   0           ['activation_28[0][0]',          
                                                                  'batch_normalization_29[0][0]'] 
                                                                                                  
 activation_30 (Activation)     (None, 14, 14, 32)   0           ['add_13[0][0]']                 
                                                                                                  
 conv2d_33 (Conv2D)             (None, 14, 14, 32)   9248        ['activation_30[0][0]']          
                                                                                                  
 batch_normalization_30 (BatchN  (None, 14, 14, 32)  128         ['conv2d_33[0][0]']              
 ormalization)                                                                                    
                                                                                                  
 activation_31 (Activation)     (None, 14, 14, 32)   0           ['batch_normalization_30[0][0]'] 
                                                                                                  
 conv2d_34 (Conv2D)             (None, 14, 14, 32)   9248        ['activation_31[0][0]']          
                                                                                                  
 batch_normalization_31 (BatchN  (None, 14, 14, 32)  128         ['conv2d_34[0][0]']              
 ormalization)                                                                                    
                                                                                                  
 add_14 (Add)                   (None, 14, 14, 32)   0           ['activation_30[0][0]',          
                                                                  'batch_normalization_31[0][0]'] 
                                                                                                  
 activation_32 (Activation)     (None, 14, 14, 32)   0           ['add_14[0][0]']                 
                                                                                                  
 conv2d_35 (Conv2D)             (None, 7, 7, 64)     18496       ['activation_32[0][0]']          
                                                                                                  
 batch_normalization_32 (BatchN  (None, 7, 7, 64)    256         ['conv2d_35[0][0]']              
 ormalization)                                                                                    
                                                                                                  
 activation_33 (Activation)     (None, 7, 7, 64)     0           ['batch_normalization_32[0][0]'] 
                                                                                                  
 conv2d_36 (Conv2D)             (None, 7, 7, 64)     36928       ['activation_33[0][0]']          
                                                                                                  
 conv2d_37 (Conv2D)             (None, 7, 7, 64)     2112        ['activation_32[0][0]']          
                                                                                                  
 batch_normalization_33 (BatchN  (None, 7, 7, 64)    256         ['conv2d_36[0][0]']              
 ormalization)                                                                                    
                                                                                                  
 add_15 (Add)                   (None, 7, 7, 64)     0           ['conv2d_37[0][0]',              
                                                                  'batch_normalization_33[0][0]'] 
                                                                                                  
 activation_34 (Activation)     (None, 7, 7, 64)     0           ['add_15[0][0]']                 
                                                                                                  
 conv2d_38 (Conv2D)             (None, 7, 7, 64)     36928       ['activation_34[0][0]']          
                                                                                                  
 batch_normalization_34 (BatchN  (None, 7, 7, 64)    256         ['conv2d_38[0][0]']              
 ormalization)                                                                                    
                                                                                                  
 activation_35 (Activation)     (None, 7, 7, 64)     0           ['batch_normalization_34[0][0]'] 
                                                                                                  
 conv2d_39 (Conv2D)             (None, 7, 7, 64)     36928       ['activation_35[0][0]']          
                                                                                                  
 batch_normalization_35 (BatchN  (None, 7, 7, 64)    256         ['conv2d_39[0][0]']              
 ormalization)                                                                                    
                                                                                                  
 add_16 (Add)                   (None, 7, 7, 64)     0           ['activation_34[0][0]',          
                                                                  'batch_normalization_35[0][0]'] 
                                                                                                  
 activation_36 (Activation)     (None, 7, 7, 64)     0           ['add_16[0][0]']                 
                                                                                                  
 conv2d_40 (Conv2D)             (None, 7, 7, 64)     36928       ['activation_36[0][0]']          
                                                                                                  
 batch_normalization_36 (BatchN  (None, 7, 7, 64)    256         ['conv2d_40[0][0]']              
 ormalization)                                                                                    
                                                                                                  
 activation_37 (Activation)     (None, 7, 7, 64)     0           ['batch_normalization_36[0][0]'] 
                                                                                                  
 conv2d_41 (Conv2D)             (None, 7, 7, 64)     36928       ['activation_37[0][0]']          
                                                                                                  
 batch_normalization_37 (BatchN  (None, 7, 7, 64)    256         ['conv2d_41[0][0]']              
 ormalization)                                                                                    
                                                                                                  
 add_17 (Add)                   (None, 7, 7, 64)     0           ['activation_36[0][0]',          
                                                                  'batch_normalization_37[0][0]'] 
                                                                                                  
 activation_38 (Activation)     (None, 7, 7, 64)     0           ['add_17[0][0]']                 
                                                                                                  
 average_pooling2d_1 (AveragePo  (None, 1, 1, 64)    0           ['activation_38[0][0]']          
 oling2D)                                                                                         
                                                                                                  
 flatten_1 (Flatten)            (None, 64)           0           ['average_pooling2d_1[0][0]']    
                                                                                                  
 dense_1 (Dense)                (None, 10)           650         ['flatten_1[0][0]']              
                                                                                                  
 activation_39 (Activation)     (None, 10)           0           ['dense_1[0][0]']                
                                                                                                  
==================================================================================================
Total params: 274,154
Trainable params: 272,778
Non-trainable params: 1,376
__________________________________________________________________________________________________
…
__________________________________________________________________________________________________
Model: "resnet50"
__________________________________________________________________________________________________
 Layer (type)                   Output Shape         Param #     Connected to                     
==================================================================================================
 input_1 (InputLayer)           [(None, 32, 32, 3)]  0           []                               
                                                                                                  
 conv1_pad (ZeroPadding2D)      (None, 38, 38, 3)    0           ['input_1[0][0]']                
                                                                                                  
 conv1_conv (Conv2D)            (None, 16, 16, 64)   9472        ['conv1_pad[0][0]']              
                                                                                                  
 conv1_bn (BatchNormalization)  (None, 16, 16, 64)   256         ['conv1_conv[0][0]']             
                                                                                                  
 conv1_relu (Activation)        (None, 16, 16, 64)   0           ['conv1_bn[0][0]']               
                                                                                                  
 pool1_pad (ZeroPadding2D)      (None, 18, 18, 64)   0           ['conv1_relu[0][0]']             
                                                                                                  
 pool1_pool (MaxPooling2D)      (None, 8, 8, 64)     0           ['pool1_pad[0][0]']              
                                                                                                  
 conv2_block1_1_conv (Conv2D)   (None, 8, 8, 64)     4160        ['pool1_pool[0][0]']             
                                                                                                  
 conv2_block1_1_bn (BatchNormal  (None, 8, 8, 64)    256         ['conv2_block1_1_conv[0][0]']    
 ization)                                                                                         
                                                                                                  
 conv2_block1_1_relu (Activatio  (None, 8, 8, 64)    0           ['conv2_block1_1_bn[0][0]']      
 n)                                                                                               
                                                                                                  
 conv2_block1_2_conv (Conv2D)   (None, 8, 8, 64)     36928       ['conv2_block1_1_relu[0][0]']    
                                                                                                  
 conv2_block1_2_bn (BatchNormal  (None, 8, 8, 64)    256         ['conv2_block1_2_conv[0][0]']    
 ization)                                                                                         
                                                                                                  
 conv2_block1_2_relu (Activatio  (None, 8, 8, 64)    0           ['conv2_block1_2_bn[0][0]']      
 n)                                                                                               
                                                                                                  
 conv2_block1_0_conv (Conv2D)   (None, 8, 8, 256)    16640       ['pool1_pool[0][0]']             
                                                                                                  
 conv2_block1_3_conv (Conv2D)   (None, 8, 8, 256)    16640       ['conv2_block1_2_relu[0][0]']    
                                                                                                  
 conv2_block1_0_bn (BatchNormal  (None, 8, 8, 256)   1024        ['conv2_block1_0_conv[0][0]']    
 ization)                                                                                         
                                                                                                  
 conv2_block1_3_bn (BatchNormal  (None, 8, 8, 256)   1024        ['conv2_block1_3_conv[0][0]']    
 ization)                                                                                         
                                                                                                  
 conv2_block1_add (Add)         (None, 8, 8, 256)    0           ['conv2_block1_0_bn[0][0]',      
                                                                  'conv2_block1_3_bn[0][0]']      
                                                                                                  
 conv2_block1_out (Activation)  (None, 8, 8, 256)    0           ['conv2_block1_add[0][0]']       
                                                                                                  
 conv2_block2_1_conv (Conv2D)   (None, 8, 8, 64)     16448       ['conv2_block1_out[0][0]']       
                                                                                                  
 conv2_block2_1_bn (BatchNormal  (None, 8, 8, 64)    256         ['conv2_block2_1_conv[0][0]']    
 ization)                                                                                         
                                                                                                  
 conv2_block2_1_relu (Activatio  (None, 8, 8, 64)    0           ['conv2_block2_1_bn[0][0]']      
 n)                                                                                               
                                                                                                  
 conv2_block2_2_conv (Conv2D)   (None, 8, 8, 64)     36928       ['conv2_block2_1_relu[0][0]']    
                                                                                                  
 conv2_block2_2_bn (BatchNormal  (None, 8, 8, 64)    256         ['conv2_block2_2_conv[0][0]']    
 ization)                                                                                         
                                                                                                  
 conv2_block2_2_relu (Activatio  (None, 8, 8, 64)    0           ['conv2_block2_2_bn[0][0]']      
 n)                                                                                               
                                                                                                  
 conv2_block2_3_conv (Conv2D)   (None, 8, 8, 256)    16640       ['conv2_block2_2_relu[0][0]']    
                                                                                                  
 conv2_block2_3_bn (BatchNormal  (None, 8, 8, 256)   1024        ['conv2_block2_3_conv[0][0]']    
 ization)                                                                                         
                                                                                                  
 conv2_block2_add (Add)         (None, 8, 8, 256)    0           ['conv2_block1_out[0][0]',       
                                                                  'conv2_block2_3_bn[0][0]']      
                                                                                                  
 conv2_block2_out (Activation)  (None, 8, 8, 256)    0           ['conv2_block2_add[0][0]']       
                                                                                                  
 conv2_block3_1_conv (Conv2D)   (None, 8, 8, 64)     16448       ['conv2_block2_out[0][0]']       
                                                                                                  
 conv2_block3_1_bn (BatchNormal  (None, 8, 8, 64)    256         ['conv2_block3_1_conv[0][0]']    
 ization)                                                                                         
                                                                                                  
 conv2_block3_1_relu (Activatio  (None, 8, 8, 64)    0           ['conv2_block3_1_bn[0][0]']      
 n)                                                                                               
                                                                                                  
 conv2_block3_2_conv (Conv2D)   (None, 8, 8, 64)     36928       ['conv2_block3_1_relu[0][0]']    
                                                                                                  
 conv2_block3_2_bn (BatchNormal  (None, 8, 8, 64)    256         ['conv2_block3_2_conv[0][0]']    
 ization)                                                                                         
                                                                                                  
 conv2_block3_2_relu (Activatio  (None, 8, 8, 64)    0           ['conv2_block3_2_bn[0][0]']      
 n)                                                                                               
                                                                                                  
 conv2_block3_3_conv (Conv2D)   (None, 8, 8, 256)    16640       ['conv2_block3_2_relu[0][0]']    
                                                                                                  
 conv2_block3_3_bn (BatchNormal  (None, 8, 8, 256)   1024        ['conv2_block3_3_conv[0][0]']    
 ization)                                                                                         
                                                                                                  
 conv2_block3_add (Add)         (None, 8, 8, 256)    0           ['conv2_block2_out[0][0]',       
                                                                  'conv2_block3_3_bn[0][0]']      
                                                                                                  
 conv2_block3_out (Activation)  (None, 8, 8, 256)    0           ['conv2_block3_add[0][0]']       
                                                                                                  
 conv3_block1_1_conv (Conv2D)   (None, 4, 4, 128)    32896       ['conv2_block3_out[0][0]']       
                                                                                                  
 conv3_block1_1_bn (BatchNormal  (None, 4, 4, 128)   512         ['conv3_block1_1_conv[0][0]']    
 ization)                                                                                         
                                                                                                  
 conv3_block1_1_relu (Activatio  (None, 4, 4, 128)   0           ['conv3_block1_1_bn[0][0]']      
 n)                                                                                               
                                                                                                  
 conv3_block1_2_conv (Conv2D)   (None, 4, 4, 128)    147584      ['conv3_block1_1_relu[0][0]']    
                                                                                                  
 conv3_block1_2_bn (BatchNormal  (None, 4, 4, 128)   512         ['conv3_block1_2_conv[0][0]']    
 ization)                                                                                         
                                                                                                  
 conv3_block1_2_relu (Activatio  (None, 4, 4, 128)   0           ['conv3_block1_2_bn[0][0]']      
 n)                                                                                               
                                                                                                  
 conv3_block1_0_conv (Conv2D)   (None, 4, 4, 512)    131584      ['conv2_block3_out[0][0]']       
                                                                                                  
 conv3_block1_3_conv (Conv2D)   (None, 4, 4, 512)    66048       ['conv3_block1_2_relu[0][0]']    
                                                                                                  
 conv3_block1_0_bn (BatchNormal  (None, 4, 4, 512)   2048        ['conv3_block1_0_conv[0][0]']    
 ization)                                                                                         
                                                                                                  
 conv3_block1_3_bn (BatchNormal  (None, 4, 4, 512)   2048        ['conv3_block1_3_conv[0][0]']    
 ization)                                                                                         
                                                                                                  
 conv3_block1_add (Add)         (None, 4, 4, 512)    0           ['conv3_block1_0_bn[0][0]',      
                                                                  'conv3_block1_3_bn[0][0]']      
                                                                                                  
 conv3_block1_out (Activation)  (None, 4, 4, 512)    0           ['conv3_block1_add[0][0]']       
                                                                                                  
 conv3_block2_1_conv (Conv2D)   (None, 4, 4, 128)    65664       ['conv3_block1_out[0][0]']       
                                                                                                  
 conv3_block2_1_bn (BatchNormal  (None, 4, 4, 128)   512         ['conv3_block2_1_conv[0][0]']    
 ization)                                                                                         
                                                                                                  
 conv3_block2_1_relu (Activatio  (None, 4, 4, 128)   0           ['conv3_block2_1_bn[0][0]']      
 n)                                                                                               
                                                                                                  
 conv3_block2_2_conv (Conv2D)   (None, 4, 4, 128)    147584      ['conv3_block2_1_relu[0][0]']    
                                                                                                  
 conv3_block2_2_bn (BatchNormal  (None, 4, 4, 128)   512         ['conv3_block2_2_conv[0][0]']    
 ization)                                                                                         
                                                                                                  
 conv3_block2_2_relu (Activatio  (None, 4, 4, 128)   0           ['conv3_block2_2_bn[0][0]']      
 n)                                                                                               
                                                                                                  
 conv3_block2_3_conv (Conv2D)   (None, 4, 4, 512)    66048       ['conv3_block2_2_relu[0][0]']    
                                                                                                  
 conv3_block2_3_bn (BatchNormal  (None, 4, 4, 512)   2048        ['conv3_block2_3_conv[0][0]']    
 ization)                                                                                         
                                                                                                  
 conv3_block2_add (Add)         (None, 4, 4, 512)    0           ['conv3_block1_out[0][0]',       
                                                                  'conv3_block2_3_bn[0][0]']      
                                                                                                  
 conv3_block2_out (Activation)  (None, 4, 4, 512)    0           ['conv3_block2_add[0][0]']       
                                                                                                  
 conv3_block3_1_conv (Conv2D)   (None, 4, 4, 128)    65664       ['conv3_block2_out[0][0]']       
                                                                                                  
 conv3_block3_1_bn (BatchNormal  (None, 4, 4, 128)   512         ['conv3_block3_1_conv[0][0]']    
 ization)                                                                                         
                                                                                                  
 conv3_block3_1_relu (Activatio  (None, 4, 4, 128)   0           ['conv3_block3_1_bn[0][0]']      
 n)                                                                                               
                                                                                                  
 conv3_block3_2_conv (Conv2D)   (None, 4, 4, 128)    147584      ['conv3_block3_1_relu[0][0]']    
                                                                                                  
 conv3_block3_2_bn (BatchNormal  (None, 4, 4, 128)   512         ['conv3_block3_2_conv[0][0]']    
 ization)                                                                                         
                                                                                                  
 conv3_block3_2_relu (Activatio  (None, 4, 4, 128)   0           ['conv3_block3_2_bn[0][0]']      
 n)                                                                                               
                                                                                                  
 conv3_block3_3_conv (Conv2D)   (None, 4, 4, 512)    66048       ['conv3_block3_2_relu[0][0]']    
                                                                                                  
 conv3_block3_3_bn (BatchNormal  (None, 4, 4, 512)   2048        ['conv3_block3_3_conv[0][0]']    
 ization)                                                                                         
                                                                                                  
 conv3_block3_add (Add)         (None, 4, 4, 512)    0           ['conv3_block2_out[0][0]',       
                                                                  'conv3_block3_3_bn[0][0]']      
                                                                                                  
 conv3_block3_out (Activation)  (None, 4, 4, 512)    0           ['conv3_block3_add[0][0]']       
                                                                                                  
 conv3_block4_1_conv (Conv2D)   (None, 4, 4, 128)    65664       ['conv3_block3_out[0][0]']       
                                                                                                  
 conv3_block4_1_bn (BatchNormal  (None, 4, 4, 128)   512         ['conv3_block4_1_conv[0][0]']    
 ization)                                                                                         
                                                                                                  
 conv3_block4_1_relu (Activatio  (None, 4, 4, 128)   0           ['conv3_block4_1_bn[0][0]']      
 n)                                                                                               
                                                                                                  
 conv3_block4_2_conv (Conv2D)   (None, 4, 4, 128)    147584      ['conv3_block4_1_relu[0][0]']    
                                                                                                  
 conv3_block4_2_bn (BatchNormal  (None, 4, 4, 128)   512         ['conv3_block4_2_conv[0][0]']    
 ization)                                                                                         
                                                                                                  
 conv3_block4_2_relu (Activatio  (None, 4, 4, 128)   0           ['conv3_block4_2_bn[0][0]']      
 n)                                                                                               
                                                                                                  
 conv3_block4_3_conv (Conv2D)   (None, 4, 4, 512)    66048       ['conv3_block4_2_relu[0][0]']    
                                                                                                  
 conv3_block4_3_bn (BatchNormal  (None, 4, 4, 512)   2048        ['conv3_block4_3_conv[0][0]']    
 ization)                                                                                         
                                                                                                  
 conv3_block4_add (Add)         (None, 4, 4, 512)    0           ['conv3_block3_out[0][0]',       
                                                                  'conv3_block4_3_bn[0][0]']      
                                                                                                  
 conv3_block4_out (Activation)  (None, 4, 4, 512)    0           ['conv3_block4_add[0][0]']       
                                                                                                  
 conv4_block1_1_conv (Conv2D)   (None, 2, 2, 256)    131328      ['conv3_block4_out[0][0]']       
                                                                                                  
 conv4_block1_1_bn (BatchNormal  (None, 2, 2, 256)   1024        ['conv4_block1_1_conv[0][0]']    
 ization)                                                                                         
                                                                                                  
 conv4_block1_1_relu (Activatio  (None, 2, 2, 256)   0           ['conv4_block1_1_bn[0][0]']      
 n)                                                                                               
                                                                                                  
 conv4_block1_2_conv (Conv2D)   (None, 2, 2, 256)    590080      ['conv4_block1_1_relu[0][0]']    
                                                                                                  
 conv4_block1_2_bn (BatchNormal  (None, 2, 2, 256)   1024        ['conv4_block1_2_conv[0][0]']    
 ization)                                                                                         
                                                                                                  
 conv4_block1_2_relu (Activatio  (None, 2, 2, 256)   0           ['conv4_block1_2_bn[0][0]']      
 n)                                                                                               
                                                                                                  
 conv4_block1_0_conv (Conv2D)   (None, 2, 2, 1024)   525312      ['conv3_block4_out[0][0]']       
                                                                                                  
 conv4_block1_3_conv (Conv2D)   (None, 2, 2, 1024)   263168      ['conv4_block1_2_relu[0][0]']    
                                                                                                  
 conv4_block1_0_bn (BatchNormal  (None, 2, 2, 1024)  4096        ['conv4_block1_0_conv[0][0]']    
 ization)                                                                                         
                                                                                                  
 conv4_block1_3_bn (BatchNormal  (None, 2, 2, 1024)  4096        ['conv4_block1_3_conv[0][0]']    
 ization)                                                                                         
                                                                                                  
 conv4_block1_add (Add)         (None, 2, 2, 1024)   0           ['conv4_block1_0_bn[0][0]',      
                                                                  'conv4_block1_3_bn[0][0]']      
                                                                                                  
 conv4_block1_out (Activation)  (None, 2, 2, 1024)   0           ['conv4_block1_add[0][0]']       
                                                                                                  
 conv4_block2_1_conv (Conv2D)   (None, 2, 2, 256)    262400      ['conv4_block1_out[0][0]']       
                                                                                                  
 conv4_block2_1_bn (BatchNormal  (None, 2, 2, 256)   1024        ['conv4_block2_1_conv[0][0]']    
 ization)                                                                                         
                                                                                                  
 conv4_block2_1_relu (Activatio  (None, 2, 2, 256)   0           ['conv4_block2_1_bn[0][0]']      
 n)                                                                                               
                                                                                                  
 conv4_block2_2_conv (Conv2D)   (None, 2, 2, 256)    590080      ['conv4_block2_1_relu[0][0]']    
                                                                                                  
 conv4_block2_2_bn (BatchNormal  (None, 2, 2, 256)   1024        ['conv4_block2_2_conv[0][0]']    
 ization)                                                                                         
                                                                                                  
 conv4_block2_2_relu (Activatio  (None, 2, 2, 256)   0           ['conv4_block2_2_bn[0][0]']      
 n)                                                                                               
                                                                                                  
 conv4_block2_3_conv (Conv2D)   (None, 2, 2, 1024)   263168      ['conv4_block2_2_relu[0][0]']    
                                                                                                  
 conv4_block2_3_bn (BatchNormal  (None, 2, 2, 1024)  4096        ['conv4_block2_3_conv[0][0]']    
 ization)                                                                                         
                                                                                                  
 conv4_block2_add (Add)         (None, 2, 2, 1024)   0           ['conv4_block1_out[0][0]',       
                                                                  'conv4_block2_3_bn[0][0]']      
                                                                                                  
 conv4_block2_out (Activation)  (None, 2, 2, 1024)   0           ['conv4_block2_add[0][0]']       
                                                                                                  
 conv4_block3_1_conv (Conv2D)   (None, 2, 2, 256)    262400      ['conv4_block2_out[0][0]']       
                                                                                                  
 conv4_block3_1_bn (BatchNormal  (None, 2, 2, 256)   1024        ['conv4_block3_1_conv[0][0]']    
 ization)                                                                                         
                                                                                                  
 conv4_block3_1_relu (Activatio  (None, 2, 2, 256)   0           ['conv4_block3_1_bn[0][0]']      
 n)                                                                                               
                                                                                                  
 conv4_block3_2_conv (Conv2D)   (None, 2, 2, 256)    590080      ['conv4_block3_1_relu[0][0]']    
                                                                                                  
 conv4_block3_2_bn (BatchNormal  (None, 2, 2, 256)   1024        ['conv4_block3_2_conv[0][0]']    
 ization)                                                                                         
                                                                                                  
 conv4_block3_2_relu (Activatio  (None, 2, 2, 256)   0           ['conv4_block3_2_bn[0][0]']      
 n)                                                                                               
                                                                                                  
 conv4_block3_3_conv (Conv2D)   (None, 2, 2, 1024)   263168      ['conv4_block3_2_relu[0][0]']    
                                                                                                  
 conv4_block3_3_bn (BatchNormal  (None, 2, 2, 1024)  4096        ['conv4_block3_3_conv[0][0]']    
 ization)                                                                                         
                                                                                                  
 conv4_block3_add (Add)         (None, 2, 2, 1024)   0           ['conv4_block2_out[0][0]',       
                                                                  'conv4_block3_3_bn[0][0]']      
                                                                                                  
 conv4_block3_out (Activation)  (None, 2, 2, 1024)   0           ['conv4_block3_add[0][0]']       
                                                                                                  
 conv4_block4_1_conv (Conv2D)   (None, 2, 2, 256)    262400      ['conv4_block3_out[0][0]']       
                                                                                                  
 conv4_block4_1_bn (BatchNormal  (None, 2, 2, 256)   1024        ['conv4_block4_1_conv[0][0]']    
 ization)                                                                                         
                                                                                                  
 conv4_block4_1_relu (Activatio  (None, 2, 2, 256)   0           ['conv4_block4_1_bn[0][0]']      
 n)                                                                                               
                                                                                                  
 conv4_block4_2_conv (Conv2D)   (None, 2, 2, 256)    590080      ['conv4_block4_1_relu[0][0]']    
                                                                                                  
 conv4_block4_2_bn (BatchNormal  (None, 2, 2, 256)   1024        ['conv4_block4_2_conv[0][0]']    
 ization)                                                                                         
                                                                                                  
 conv4_block4_2_relu (Activatio  (None, 2, 2, 256)   0           ['conv4_block4_2_bn[0][0]']      
 n)                                                                                               
                                                                                                  
 conv4_block4_3_conv (Conv2D)   (None, 2, 2, 1024)   263168      ['conv4_block4_2_relu[0][0]']    
                                                                                                  
 conv4_block4_3_bn (BatchNormal  (None, 2, 2, 1024)  4096        ['conv4_block4_3_conv[0][0]']    
 ization)                                                                                         
                                                                                                  
 conv4_block4_add (Add)         (None, 2, 2, 1024)   0           ['conv4_block3_out[0][0]',       
                                                                  'conv4_block4_3_bn[0][0]']      
                                                                                                  
 conv4_block4_out (Activation)  (None, 2, 2, 1024)   0           ['conv4_block4_add[0][0]']       
                                                                                                  
 conv4_block5_1_conv (Conv2D)   (None, 2, 2, 256)    262400      ['conv4_block4_out[0][0]']       
                                                                                                  
 conv4_block5_1_bn (BatchNormal  (None, 2, 2, 256)   1024        ['conv4_block5_1_conv[0][0]']    
 ization)                                                                                         
                                                                                                  
 conv4_block5_1_relu (Activatio  (None, 2, 2, 256)   0           ['conv4_block5_1_bn[0][0]']      
 n)                                                                                               
                                                                                                  
 conv4_block5_2_conv (Conv2D)   (None, 2, 2, 256)    590080      ['conv4_block5_1_relu[0][0]']    
                                                                                                  
 conv4_block5_2_bn (BatchNormal  (None, 2, 2, 256)   1024        ['conv4_block5_2_conv[0][0]']    
 ization)                                                                                         
                                                                                                  
 conv4_block5_2_relu (Activatio  (None, 2, 2, 256)   0           ['conv4_block5_2_bn[0][0]']      
 n)                                                                                               
                                                                                                  
 conv4_block5_3_conv (Conv2D)   (None, 2, 2, 1024)   263168      ['conv4_block5_2_relu[0][0]']    
                                                                                                  
 conv4_block5_3_bn (BatchNormal  (None, 2, 2, 1024)  4096        ['conv4_block5_3_conv[0][0]']    
 ization)                                                                                         
                                                                                                  
 conv4_block5_add (Add)         (None, 2, 2, 1024)   0           ['conv4_block4_out[0][0]',       
                                                                  'conv4_block5_3_bn[0][0]']      
                                                                                                  
 conv4_block5_out (Activation)  (None, 2, 2, 1024)   0           ['conv4_block5_add[0][0]']       
                                                                                                  
 conv4_block6_1_conv (Conv2D)   (None, 2, 2, 256)    262400      ['conv4_block5_out[0][0]']       
                                                                                                  
 conv4_block6_1_bn (BatchNormal  (None, 2, 2, 256)   1024        ['conv4_block6_1_conv[0][0]']    
 ization)                                                                                         
                                                                                                  
 conv4_block6_1_relu (Activatio  (None, 2, 2, 256)   0           ['conv4_block6_1_bn[0][0]']      
 n)                                                                                               
                                                                                                  
 conv4_block6_2_conv (Conv2D)   (None, 2, 2, 256)    590080      ['conv4_block6_1_relu[0][0]']    
                                                                                                  
 conv4_block6_2_bn (BatchNormal  (None, 2, 2, 256)   1024        ['conv4_block6_2_conv[0][0]']    
 ization)                                                                                         
                                                                                                  
 conv4_block6_2_relu (Activatio  (None, 2, 2, 256)   0           ['conv4_block6_2_bn[0][0]']      
 n)                                                                                               
                                                                                                  
 conv4_block6_3_conv (Conv2D)   (None, 2, 2, 1024)   263168      ['conv4_block6_2_relu[0][0]']    
                                                                                                  
 conv4_block6_3_bn (BatchNormal  (None, 2, 2, 1024)  4096        ['conv4_block6_3_conv[0][0]']    
 ization)                                                                                         
                                                                                                  
 conv4_block6_add (Add)         (None, 2, 2, 1024)   0           ['conv4_block5_out[0][0]',       
                                                                  'conv4_block6_3_bn[0][0]']      
                                                                                                  
 conv4_block6_out (Activation)  (None, 2, 2, 1024)   0           ['conv4_block6_add[0][0]']       
                                                                                                  
 conv5_block1_1_conv (Conv2D)   (None, 1, 1, 512)    524800      ['conv4_block6_out[0][0]']       
                                                                                                  
 conv5_block1_1_bn (BatchNormal  (None, 1, 1, 512)   2048        ['conv5_block1_1_conv[0][0]']    
 ization)                                                                                         
                                                                                                  
 conv5_block1_1_relu (Activatio  (None, 1, 1, 512)   0           ['conv5_block1_1_bn[0][0]']      
 n)                                                                                               
                                                                                                  
 conv5_block1_2_conv (Conv2D)   (None, 1, 1, 512)    2359808     ['conv5_block1_1_relu[0][0]']    
                                                                                                  
 conv5_block1_2_bn (BatchNormal  (None, 1, 1, 512)   2048        ['conv5_block1_2_conv[0][0]']    
 ization)                                                                                         
                                                                                                  
 conv5_block1_2_relu (Activatio  (None, 1, 1, 512)   0           ['conv5_block1_2_bn[0][0]']      
 n)                                                                                               
                                                                                                  
 conv5_block1_0_conv (Conv2D)   (None, 1, 1, 2048)   2099200     ['conv4_block6_out[0][0]']       
                                                                                                  
 conv5_block1_3_conv (Conv2D)   (None, 1, 1, 2048)   1050624     ['conv5_block1_2_relu[0][0]']    
                                                                                                  
 conv5_block1_0_bn (BatchNormal  (None, 1, 1, 2048)  8192        ['conv5_block1_0_conv[0][0]']    
 ization)                                                                                         
                                                                                                  
 conv5_block1_3_bn (BatchNormal  (None, 1, 1, 2048)  8192        ['conv5_block1_3_conv[0][0]']    
 ization)                                                                                         
                                                                                                  
 conv5_block1_add (Add)         (None, 1, 1, 2048)   0           ['conv5_block1_0_bn[0][0]',      
                                                                  'conv5_block1_3_bn[0][0]']      
                                                                                                  
 conv5_block1_out (Activation)  (None, 1, 1, 2048)   0           ['conv5_block1_add[0][0]']       
                                                                                                  
 conv5_block2_1_conv (Conv2D)   (None, 1, 1, 512)    1049088     ['conv5_block1_out[0][0]']       
                                                                                                  
 conv5_block2_1_bn (BatchNormal  (None, 1, 1, 512)   2048        ['conv5_block2_1_conv[0][0]']    
 ization)                                                                                         
                                                                                                  
 conv5_block2_1_relu (Activatio  (None, 1, 1, 512)   0           ['conv5_block2_1_bn[0][0]']      
 n)                                                                                               
                                                                                                  
 conv5_block2_2_conv (Conv2D)   (None, 1, 1, 512)    2359808     ['conv5_block2_1_relu[0][0]']    
                                                                                                  
 conv5_block2_2_bn (BatchNormal  (None, 1, 1, 512)   2048        ['conv5_block2_2_conv[0][0]']    
 ization)                                                                                         
                                                                                                  
 conv5_block2_2_relu (Activatio  (None, 1, 1, 512)   0           ['conv5_block2_2_bn[0][0]']      
 n)                                                                                               
                                                                                                  
 conv5_block2_3_conv (Conv2D)   (None, 1, 1, 2048)   1050624     ['conv5_block2_2_relu[0][0]']    
                                                                                                  
 conv5_block2_3_bn (BatchNormal  (None, 1, 1, 2048)  8192        ['conv5_block2_3_conv[0][0]']    
 ization)                                                                                         
                                                                                                  
 conv5_block2_add (Add)         (None, 1, 1, 2048)   0           ['conv5_block1_out[0][0]',       
                                                                  'conv5_block2_3_bn[0][0]']      
                                                                                                  
 conv5_block2_out (Activation)  (None, 1, 1, 2048)   0           ['conv5_block2_add[0][0]']       
                                                                                                  
 conv5_block3_1_conv (Conv2D)   (None, 1, 1, 512)    1049088     ['conv5_block2_out[0][0]']       
                                                                                                  
 conv5_block3_1_bn (BatchNormal  (None, 1, 1, 512)   2048        ['conv5_block3_1_conv[0][0]']    
 ization)                                                                                         
                                                                                                  
 conv5_block3_1_relu (Activatio  (None, 1, 1, 512)   0           ['conv5_block3_1_bn[0][0]']      
 n)                                                                                               
                                                                                                  
 conv5_block3_2_conv (Conv2D)   (None, 1, 1, 512)    2359808     ['conv5_block3_1_relu[0][0]']    
                                                                                                  
 conv5_block3_2_bn (BatchNormal  (None, 1, 1, 512)   2048        ['conv5_block3_2_conv[0][0]']    
 ization)                                                                                         
                                                                                                  
 conv5_block3_2_relu (Activatio  (None, 1, 1, 512)   0           ['conv5_block3_2_bn[0][0]']      
 n)                                                                                               
                                                                                                  
 conv5_block3_3_conv (Conv2D)   (None, 1, 1, 2048)   1050624     ['conv5_block3_2_relu[0][0]']    
                                                                                                  
 conv5_block3_3_bn (BatchNormal  (None, 1, 1, 2048)  8192        ['conv5_block3_3_conv[0][0]']    
 ization)                                                                                         
                                                                                                  
 conv5_block3_add (Add)         (None, 1, 1, 2048)   0           ['conv5_block2_out[0][0]',       
                                                                  'conv5_block3_3_bn[0][0]']      
                                                                                                  
 conv5_block3_out (Activation)  (None, 1, 1, 2048)   0           ['conv5_block3_add[0][0]']       
                                                                                                  
==================================================================================================
Total params: 23,587,712
Trainable params: 23,534,592
Non-trainable params: 53,120
__________________________________________________________________________________________________
Model: "sequential_1"
_________________________________________________________________
 Layer (type)                Output Shape              Param #   
=================================================================
 resnet50 (Functional)       (None, 1, 1, 2048)        23587712  
                                                                 
 flatten (Flatten)           (None, 2048)              0         
                                                                 
 dense (Dense)               (None, 10)                20490     
                                                                 
=================================================================
Total params: 23,608,202
Trainable params: 23,555,082
Non-trainable params: 53,120
_________________________________________________________________
Model: "sequential_2"
_________________________________________________________________
 Layer (type)                Output Shape              Param #   
=================================================================
 resnet50 (Functional)       (None, 1, 1, 2048)        23587712  
                                                                 
 flatten_1 (Flatten)         (None, 2048)              0         
                                                                 
 dense_1 (Dense)             (None, 10)                20490     
                                                                 
=================================================================
Total params: 23,608,202
Trainable params: 23,555,082
Non-trainable params: 53,120
_________________________________________________________________
Model: "model"
__________________________________________________________________________________________________
 Layer (type)                   Output Shape         Param #     Connected to                     
==================================================================================================
 input_1 (InputLayer)           [(None, 32, 32, 3)]  0           []                               
                                                                                                  
 conv2d (Conv2D)                (None, 32, 32, 16)   448         ['input_1[0][0]']                
                                                                                                  
 batch_normalization (BatchNorm  (None, 32, 32, 16)  64          ['conv2d[0][0]']                 
 alization)                                                                                       
                                                                                                  
 activation (Activation)        (None, 32, 32, 16)   0           ['batch_normalization[0][0]']    
                                                                                                  
 conv2d_1 (Conv2D)              (None, 32, 32, 16)   2320        ['activation[0][0]']             
                                                                                                  
 batch_normalization_1 (BatchNo  (None, 32, 32, 16)  64          ['conv2d_1[0][0]']               
 rmalization)                                                                                     
                                                                                                  
 activation_1 (Activation)      (None, 32, 32, 16)   0           ['batch_normalization_1[0][0]']  
                                                                                                  
 conv2d_2 (Conv2D)              (None, 32, 32, 16)   2320        ['activation_1[0][0]']           
                                                                                                  
 batch_normalization_2 (BatchNo  (None, 32, 32, 16)  64          ['conv2d_2[0][0]']               
 rmalization)                                                                                     
                                                                                                  
 add (Add)                      (None, 32, 32, 16)   0           ['activation[0][0]',             
                                                                  'batch_normalization_2[0][0]']  
                                                                                                  
 activation_2 (Activation)      (None, 32, 32, 16)   0           ['add[0][0]']                    
                                                                                                  
 conv2d_3 (Conv2D)              (None, 32, 32, 16)   2320        ['activation_2[0][0]']           
                                                                                                  
 batch_normalization_3 (BatchNo  (None, 32, 32, 16)  64          ['conv2d_3[0][0]']               
 rmalization)                                                                                     
                                                                                                  
 activation_3 (Activation)      (None, 32, 32, 16)   0           ['batch_normalization_3[0][0]']  
                                                                                                  
 conv2d_4 (Conv2D)              (None, 32, 32, 16)   2320        ['activation_3[0][0]']           
                                                                                                  
 batch_normalization_4 (BatchNo  (None, 32, 32, 16)  64          ['conv2d_4[0][0]']               
 rmalization)                                                                                     
                                                                                                  
 add_1 (Add)                    (None, 32, 32, 16)   0           ['activation_2[0][0]',           
                                                                  'batch_normalization_4[0][0]']  
                                                                                                  
 activation_4 (Activation)      (None, 32, 32, 16)   0           ['add_1[0][0]']                  
                                                                                                  
 conv2d_5 (Conv2D)              (None, 32, 32, 16)   2320        ['activation_4[0][0]']           
                                                                                                  
 batch_normalization_5 (BatchNo  (None, 32, 32, 16)  64          ['conv2d_5[0][0]']               
 rmalization)                                                                                     
                                                                                                  
 activation_5 (Activation)      (None, 32, 32, 16)   0           ['batch_normalization_5[0][0]']  
                                                                                                  
 conv2d_6 (Conv2D)              (None, 32, 32, 16)   2320        ['activation_5[0][0]']           
                                                                                                  
 batch_normalization_6 (BatchNo  (None, 32, 32, 16)  64          ['conv2d_6[0][0]']               
 rmalization)                                                                                     
                                                                                                  
 add_2 (Add)                    (None, 32, 32, 16)   0           ['activation_4[0][0]',           
                                                                  'batch_normalization_6[0][0]']  
                                                                                                  
 activation_6 (Activation)      (None, 32, 32, 16)   0           ['add_2[0][0]']                  
                                                                                                  
 conv2d_7 (Conv2D)              (None, 16, 16, 32)   4640        ['activation_6[0][0]']           
                                                                                                  
 batch_normalization_7 (BatchNo  (None, 16, 16, 32)  128         ['conv2d_7[0][0]']               
 rmalization)                                                                                     
                                                                                                  
 activation_7 (Activation)      (None, 16, 16, 32)   0           ['batch_normalization_7[0][0]']  
                                                                                                  
 conv2d_8 (Conv2D)              (None, 16, 16, 32)   9248        ['activation_7[0][0]']           
                                                                                                  
 conv2d_9 (Conv2D)              (None, 16, 16, 32)   544         ['activation_6[0][0]']           
                                                                                                  
 batch_normalization_8 (BatchNo  (None, 16, 16, 32)  128         ['conv2d_8[0][0]']               
 rmalization)                                                                                     
                                                                                                  
 add_3 (Add)                    (None, 16, 16, 32)   0           ['conv2d_9[0][0]',               
                                                                  'batch_normalization_8[0][0]']  
                                                                                                  
 activation_8 (Activation)      (None, 16, 16, 32)   0           ['add_3[0][0]']                  
                                                                                                  
 conv2d_10 (Conv2D)             (None, 16, 16, 32)   9248        ['activation_8[0][0]']           
                                                                                                  
 batch_normalization_9 (BatchNo  (None, 16, 16, 32)  128         ['conv2d_10[0][0]']              
 rmalization)                                                                                     
                                                                                                  
 activation_9 (Activation)      (None, 16, 16, 32)   0           ['batch_normalization_9[0][0]']  
                                                                                                  
 conv2d_11 (Conv2D)             (None, 16, 16, 32)   9248        ['activation_9[0][0]']           
                                                                                                  
 batch_normalization_10 (BatchN  (None, 16, 16, 32)  128         ['conv2d_11[0][0]']              
 ormalization)                                                                                    
                                                                                                  
 add_4 (Add)                    (None, 16, 16, 32)   0           ['activation_8[0][0]',           
                                                                  'batch_normalization_10[0][0]'] 
                                                                                                  
 activation_10 (Activation)     (None, 16, 16, 32)   0           ['add_4[0][0]']                  
                                                                                                  
 conv2d_12 (Conv2D)             (None, 16, 16, 32)   9248        ['activation_10[0][0]']          
                                                                                                  
 batch_normalization_11 (BatchN  (None, 16, 16, 32)  128         ['conv2d_12[0][0]']              
 ormalization)                                                                                    
                                                                                                  
 activation_11 (Activation)     (None, 16, 16, 32)   0           ['batch_normalization_11[0][0]'] 
                                                                                                  
 conv2d_13 (Conv2D)             (None, 16, 16, 32)   9248        ['activation_11[0][0]']          
                                                                                                  
 batch_normalization_12 (BatchN  (None, 16, 16, 32)  128         ['conv2d_13[0][0]']              
 ormalization)                                                                                    
                                                                                                  
 add_5 (Add)                    (None, 16, 16, 32)   0           ['activation_10[0][0]',          
                                                                  'batch_normalization_12[0][0]'] 
                                                                                                  
 activation_12 (Activation)     (None, 16, 16, 32)   0           ['add_5[0][0]']                  
                                                                                                  
 conv2d_14 (Conv2D)             (None, 8, 8, 64)     18496       ['activation_12[0][0]']          
                                                                                                  
 batch_normalization_13 (BatchN  (None, 8, 8, 64)    256         ['conv2d_14[0][0]']              
 ormalization)                                                                                    
                                                                                                  
 activation_13 (Activation)     (None, 8, 8, 64)     0           ['batch_normalization_13[0][0]'] 
                                                                                                  
 conv2d_15 (Conv2D)             (None, 8, 8, 64)     36928       ['activation_13[0][0]']          
                                                                                                  
 conv2d_16 (Conv2D)             (None, 8, 8, 64)     2112        ['activation_12[0][0]']          
                                                                                                  
 batch_normalization_14 (BatchN  (None, 8, 8, 64)    256         ['conv2d_15[0][0]']              
 ormalization)                                                                                    
                                                                                                  
 add_6 (Add)                    (None, 8, 8, 64)     0           ['conv2d_16[0][0]',              
                                                                  'batch_normalization_14[0][0]'] 
                                                                                                  
 activation_14 (Activation)     (None, 8, 8, 64)     0           ['add_6[0][0]']                  
                                                                                                  
 conv2d_17 (Conv2D)             (None, 8, 8, 64)     36928       ['activation_14[0][0]']          
                                                                                                  
 batch_normalization_15 (BatchN  (None, 8, 8, 64)    256         ['conv2d_17[0][0]']              
 ormalization)                                                                                    
                                                                                                  
 activation_15 (Activation)     (None, 8, 8, 64)     0           ['batch_normalization_15[0][0]'] 
                                                                                                  
 conv2d_18 (Conv2D)             (None, 8, 8, 64)     36928       ['activation_15[0][0]']          
                                                                                                  
 batch_normalization_16 (BatchN  (None, 8, 8, 64)    256         ['conv2d_18[0][0]']              
 ormalization)                                                                                    
                                                                                                  
 add_7 (Add)                    (None, 8, 8, 64)     0           ['activation_14[0][0]',          
                                                                  'batch_normalization_16[0][0]'] 
                                                                                                  
 activation_16 (Activation)     (None, 8, 8, 64)     0           ['add_7[0][0]']                  
                                                                                                  
 conv2d_19 (Conv2D)             (None, 8, 8, 64)     36928       ['activation_16[0][0]']          
                                                                                                  
 batch_normalization_17 (BatchN  (None, 8, 8, 64)    256         ['conv2d_19[0][0]']              
 ormalization)                                                                                    
                                                                                                  
 activation_17 (Activation)     (None, 8, 8, 64)     0           ['batch_normalization_17[0][0]'] 
                                                                                                  
 conv2d_20 (Conv2D)             (None, 8, 8, 64)     36928       ['activation_17[0][0]']          
                                                                                                  
 batch_normalization_18 (BatchN  (None, 8, 8, 64)    256         ['conv2d_20[0][0]']              
 ormalization)                                                                                    
                                                                                                  
 add_8 (Add)                    (None, 8, 8, 64)     0           ['activation_16[0][0]',          
                                                                  'batch_normalization_18[0][0]'] 
                                                                                                  
 activation_18 (Activation)     (None, 8, 8, 64)     0           ['add_8[0][0]']                  
                                                                                                  
 average_pooling2d (AveragePool  (None, 2, 2, 64)    0           ['activation_18[0][0]']          
 ing2D)                                                                                           
                                                                                                  
 flatten (Flatten)              (None, 256)          0           ['average_pooling2d[0][0]']      
                                                                                                  
 dense (Dense)                  (None, 10)           2570        ['flatten[0][0]']                
                                                                                                  
 activation_19 (Activation)     (None, 10)           0           ['dense[0][0]']                  
                                                                                                  
==================================================================================================
Total params: 276,362
Trainable params: 274,986
Non-trainable params: 1,376
__________________________________________________________________________________________________
Model: "model_1"
__________________________________________________________________________________________________
 Layer (type)                   Output Shape         Param #     Connected to                     
==================================================================================================
 input_2 (InputLayer)           [(None, 32, 32, 3)]  0           []                               
                                                                                                  
 conv2d_21 (Conv2D)             (None, 32, 32, 16)   448         ['input_2[0][0]']                
                                                                                                  
 batch_normalization_19 (BatchN  (None, 32, 32, 16)  64          ['conv2d_21[0][0]']              
 ormalization)                                                                                    
                                                                                                  
 activation_20 (Activation)     (None, 32, 32, 16)   0           ['batch_normalization_19[0][0]'] 
                                                                                                  
 conv2d_22 (Conv2D)             (None, 32, 32, 16)   2320        ['activation_20[0][0]']          
                                                                                                  
 batch_normalization_20 (BatchN  (None, 32, 32, 16)  64          ['conv2d_22[0][0]']              
 ormalization)                                                                                    
                                                                                                  
 activation_21 (Activation)     (None, 32, 32, 16)   0           ['batch_normalization_20[0][0]'] 
                                                                                                  
 conv2d_23 (Conv2D)             (None, 32, 32, 16)   2320        ['activation_21[0][0]']          
                                                                                                  
 batch_normalization_21 (BatchN  (None, 32, 32, 16)  64          ['conv2d_23[0][0]']              
 ormalization)                                                                                    
                                                                                                  
 add_9 (Add)                    (None, 32, 32, 16)   0           ['activation_20[0][0]',          
                                                                  'batch_normalization_21[0][0]'] 
                                                                                                  
 activation_22 (Activation)     (None, 32, 32, 16)   0           ['add_9[0][0]']                  
                                                                                                  
 conv2d_24 (Conv2D)             (None, 32, 32, 16)   2320        ['activation_22[0][0]']          
                                                                                                  
 batch_normalization_22 (BatchN  (None, 32, 32, 16)  64          ['conv2d_24[0][0]']              
 ormalization)                                                                                    
                                                                                                  
 activation_23 (Activation)     (None, 32, 32, 16)   0           ['batch_normalization_22[0][0]'] 
                                                                                                  
 conv2d_25 (Conv2D)             (None, 32, 32, 16)   2320        ['activation_23[0][0]']          
                                                                                                  
 batch_normalization_23 (BatchN  (None, 32, 32, 16)  64          ['conv2d_25[0][0]']              
 ormalization)                                                                                    
                                                                                                  
 add_10 (Add)                   (None, 32, 32, 16)   0           ['activation_22[0][0]',          
                                                                  'batch_normalization_23[0][0]'] 
                                                                                                  
 activation_24 (Activation)     (None, 32, 32, 16)   0           ['add_10[0][0]']                 
                                                                                                  
 conv2d_26 (Conv2D)             (None, 32, 32, 16)   2320        ['activation_24[0][0]']          
                                                                                                  
 batch_normalization_24 (BatchN  (None, 32, 32, 16)  64          ['conv2d_26[0][0]']              
 ormalization)                                                                                    
                                                                                                  
 activation_25 (Activation)     (None, 32, 32, 16)   0           ['batch_normalization_24[0][0]'] 
                                                                                                  
 conv2d_27 (Conv2D)             (None, 32, 32, 16)   2320        ['activation_25[0][0]']          
                                                                                                  
 batch_normalization_25 (BatchN  (None, 32, 32, 16)  64          ['conv2d_27[0][0]']              
 ormalization)                                                                                    
                                                                                                  
 add_11 (Add)                   (None, 32, 32, 16)   0           ['activation_24[0][0]',          
                                                                  'batch_normalization_25[0][0]'] 
                                                                                                  
 activation_26 (Activation)     (None, 32, 32, 16)   0           ['add_11[0][0]']                 
                                                                                                  
 conv2d_28 (Conv2D)             (None, 16, 16, 32)   4640        ['activation_26[0][0]']          
                                                                                                  
 batch_normalization_26 (BatchN  (None, 16, 16, 32)  128         ['conv2d_28[0][0]']              
 ormalization)                                                                                    
                                                                                                  
 activation_27 (Activation)     (None, 16, 16, 32)   0           ['batch_normalization_26[0][0]'] 
                                                                                                  
 conv2d_29 (Conv2D)             (None, 16, 16, 32)   9248        ['activation_27[0][0]']          
                                                                                                  
 conv2d_30 (Conv2D)             (None, 16, 16, 32)   544         ['activation_26[0][0]']          
                                                                                                  
 batch_normalization_27 (BatchN  (None, 16, 16, 32)  128         ['conv2d_29[0][0]']              
 ormalization)                                                                                    
                                                                                                  
 add_12 (Add)                   (None, 16, 16, 32)   0           ['conv2d_30[0][0]',              
                                                                  'batch_normalization_27[0][0]'] 
                                                                                                  
 activation_28 (Activation)     (None, 16, 16, 32)   0           ['add_12[0][0]']                 
                                                                                                  
 conv2d_31 (Conv2D)             (None, 16, 16, 32)   9248        ['activation_28[0][0]']          
                                                                                                  
 batch_normalization_28 (BatchN  (None, 16, 16, 32)  128         ['conv2d_31[0][0]']              
 ormalization)                                                                                    
                                                                                                  
 activation_29 (Activation)     (None, 16, 16, 32)   0           ['batch_normalization_28[0][0]'] 
                                                                                                  
 conv2d_32 (Conv2D)             (None, 16, 16, 32)   9248        ['activation_29[0][0]']          
                                                                                                  
 batch_normalization_29 (BatchN  (None, 16, 16, 32)  128         ['conv2d_32[0][0]']              
 ormalization)                                                                                    
                                                                                                  
 add_13 (Add)                   (None, 16, 16, 32)   0           ['activation_28[0][0]',          
                                                                  'batch_normalization_29[0][0]'] 
                                                                                                  
 activation_30 (Activation)     (None, 16, 16, 32)   0           ['add_13[0][0]']                 
                                                                                                  
 conv2d_33 (Conv2D)             (None, 16, 16, 32)   9248        ['activation_30[0][0]']          
                                                                                                  
 batch_normalization_30 (BatchN  (None, 16, 16, 32)  128         ['conv2d_33[0][0]']              
 ormalization)                                                                                    
                                                                                                  
 activation_31 (Activation)     (None, 16, 16, 32)   0           ['batch_normalization_30[0][0]'] 
                                                                                                  
 conv2d_34 (Conv2D)             (None, 16, 16, 32)   9248        ['activation_31[0][0]']          
                                                                                                  
 batch_normalization_31 (BatchN  (None, 16, 16, 32)  128         ['conv2d_34[0][0]']              
 ormalization)                                                                                    
                                                                                                  
 add_14 (Add)                   (None, 16, 16, 32)   0           ['activation_30[0][0]',          
                                                                  'batch_normalization_31[0][0]'] 
                                                                                                  
 activation_32 (Activation)     (None, 16, 16, 32)   0           ['add_14[0][0]']                 
                                                                                                  
 conv2d_35 (Conv2D)             (None, 8, 8, 64)     18496       ['activation_32[0][0]']          
                                                                                                  
 batch_normalization_32 (BatchN  (None, 8, 8, 64)    256         ['conv2d_35[0][0]']              
 ormalization)                                                                                    
                                                                                                  
 activation_33 (Activation)     (None, 8, 8, 64)     0           ['batch_normalization_32[0][0]'] 
                                                                                                  
 conv2d_36 (Conv2D)             (None, 8, 8, 64)     36928       ['activation_33[0][0]']          
                                                                                                  
 conv2d_37 (Conv2D)             (None, 8, 8, 64)     2112        ['activation_32[0][0]']          
                                                                                                  
 batch_normalization_33 (BatchN  (None, 8, 8, 64)    256         ['conv2d_36[0][0]']              
 ormalization)                                                                                    
                                                                                                  
 add_15 (Add)                   (None, 8, 8, 64)     0           ['conv2d_37[0][0]',              
                                                                  'batch_normalization_33[0][0]'] 
                                                                                                  
 activation_34 (Activation)     (None, 8, 8, 64)     0           ['add_15[0][0]']                 
                                                                                                  
 conv2d_38 (Conv2D)             (None, 8, 8, 64)     36928       ['activation_34[0][0]']          
                                                                                                  
 batch_normalization_34 (BatchN  (None, 8, 8, 64)    256         ['conv2d_38[0][0]']              
 ormalization)                                                                                    
                                                                                                  
 activation_35 (Activation)     (None, 8, 8, 64)     0           ['batch_normalization_34[0][0]'] 
                                                                                                  
 conv2d_39 (Conv2D)             (None, 8, 8, 64)     36928       ['activation_35[0][0]']          
                                                                                                  
 batch_normalization_35 (BatchN  (None, 8, 8, 64)    256         ['conv2d_39[0][0]']              
 ormalization)                                                                                    
                                                                                                  
 add_16 (Add)                   (None, 8, 8, 64)     0           ['activation_34[0][0]',          
                                                                  'batch_normalization_35[0][0]'] 
                                                                                                  
 activation_36 (Activation)     (None, 8, 8, 64)     0           ['add_16[0][0]']                 
                                                                                                  
 conv2d_40 (Conv2D)             (None, 8, 8, 64)     36928       ['activation_36[0][0]']          
                                                                                                  
 batch_normalization_36 (BatchN  (None, 8, 8, 64)    256         ['conv2d_40[0][0]']              
 ormalization)                                                                                    
                                                                                                  
 activation_37 (Activation)     (None, 8, 8, 64)     0           ['batch_normalization_36[0][0]'] 
                                                                                                  
 conv2d_41 (Conv2D)             (None, 8, 8, 64)     36928       ['activation_37[0][0]']          
                                                                                                  
 batch_normalization_37 (BatchN  (None, 8, 8, 64)    256         ['conv2d_41[0][0]']              
 ormalization)                                                                                    
                                                                                                  
 add_17 (Add)                   (None, 8, 8, 64)     0           ['activation_36[0][0]',          
                                                                  'batch_normalization_37[0][0]'] 
                                                                                                  
 activation_38 (Activation)     (None, 8, 8, 64)     0           ['add_17[0][0]']                 
                                                                                                  
 average_pooling2d_1 (AveragePo  (None, 2, 2, 64)    0           ['activation_38[0][0]']          
 oling2D)                                                                                         
                                                                                                  
 flatten_1 (Flatten)            (None, 256)          0           ['average_pooling2d_1[0][0]']    
                                                                                                  
 dense_1 (Dense)                (None, 10)           2570        ['flatten_1[0][0]']              
                                                                                                  
 activation_39 (Activation)     (None, 10)           0           ['dense_1[0][0]']                
                                                                                                  
==================================================================================================
Total params: 276,362
Trainable params: 274,986
Non-trainable params: 1,376
__________________________________________________________________________________________________
Model: "sequential"
_________________________________________________________________
 Layer (type)                Output Shape              Param #   
=================================================================
 resnet50 (Functional)       (None, 1, 1, 2048)        23587712  
                                                                 
 flatten (Flatten)           (None, 2048)              0         
                                                                 
 dense (Dense)               (None, 10)                20490     
                                                                 
=================================================================
Total params: 23,608,202
Trainable params: 23,555,082
Non-trainable params: 53,120
_________________________________________________________________
Model: "sequential"
_________________________________________________________________
 Layer (type)                Output Shape              Param #   
=================================================================
 resnet50 (Functional)       (None, 1, 1, 2048)        23587712  
                                                                 
 flatten (Flatten)           (None, 2048)              0         
                                                                 
 dense (Dense)               (None, 10)                20490     
                                                                 
=================================================================
Total params: 23,608,202
Trainable params: 23,555,082
Non-trainable params: 53,120
_________________________________________________________________
Model: "sequential"
_________________________________________________________________
 Layer (type)                Output Shape              Param #   
=================================================================
 resnet50 (Functional)       (None, 1, 1, 2048)        23587712  
                                                                 
 flatten (Flatten)           (None, 2048)              0         
                                                                 
 dense (Dense)               (None, 10)                20490     
                                                                 
=================================================================
Total params: 23,608,202
Trainable params: 23,555,082
Non-trainable params: 53,120
_________________________________________________________________
Model: "sequential_1"
_________________________________________________________________
 Layer (type)                Output Shape              Param #   
=================================================================
 resnet50 (Functional)       (None, 1, 1, 2048)        23587712  
                                                                 
 flatten_1 (Flatten)         (None, 2048)              0         
                                                                 
 dense_1 (Dense)             (None, 10)                20490     
                                                                 
=================================================================
Total params: 23,608,202
Trainable params: 23,555,082
Non-trainable params: 53,120
_________________________________________________________________
Model: "sequential"
_________________________________________________________________
 Layer (type)                Output Shape              Param #   
=================================================================
 inception_v3 (Functional)   (None, 1, 1, 2048)        21802784  
                                                                 
 flatten (Flatten)           (None, 2048)              0         
                                                                 
 dense (Dense)               (None, 10)                20490     
                                                                 
=================================================================
Total params: 21,823,274
Trainable params: 21,788,842
Non-trainable params: 34,432
_________________________________________________________________
